# Training parameters
LEARNING_RATE = 3e-3
DATA_AUGMENTATION = True  
BATCH_SIZE = 128
EPOCHS = 200
KERNEL_INITIALIZER = 'he_normal'


Using TensorFlow backend.
Using data augmentation.
__________________________________________________________________________________________________
Layer (type)                    Output Shape         Param #     Connected to
==================================================================================================
input_1 (InputLayer)            (None, 32, 32, 3)    0
__________________________________________________________________________________________________
stage1_conv1 (Conv2D)           (None, 32, 32, 32)   896         input_1[0][0]
__________________________________________________________________________________________________
stage1_conv2 (Conv2D)           (None, 32, 32, 32)   9248        stage1_conv1[0][0]
__________________________________________________________________________________________________
stage1_maxpool (MaxPooling2D)   (None, 16, 16, 32)   0           stage1_conv2[0][0]
__________________________________________________________________________________________________
stage2_1_1 (Conv2D)             (None, 16, 16, 64)   18496       stage1_maxpool[0][0]
__________________________________________________________________________________________________
stage2_3_3 (Conv2D)             (None, 16, 16, 128)  36992       stage1_maxpool[0][0]
__________________________________________________________________________________________________
stage2_5_5 (Conv2D)             (None, 16, 16, 32)   9248        stage1_maxpool[0][0]
__________________________________________________________________________________________________
stage2_pool_1_1 (Conv2D)        (None, 16, 16, 32)   9248        stage1_maxpool[0][0]
__________________________________________________________________________________________________
concatenate_1 (Concatenate)     (None, 16, 16, 256)  0           stage2_1_1[0][0]
                                                                 stage2_3_3[0][0]
                                                                 stage2_5_5[0][0]
                                                                 stage2_pool_1_1[0][0]
__________________________________________________________________________________________________
stage2_maxpool (MaxPooling2D)   (None, 8, 8, 256)    0           concatenate_1[0][0]
__________________________________________________________________________________________________
stage3_1_1 (Conv2D)             (None, 8, 8, 128)    295040      stage2_maxpool[0][0]
__________________________________________________________________________________________________
stage3_3_3 (Conv2D)             (None, 8, 8, 192)    442560      stage2_maxpool[0][0]
__________________________________________________________________________________________________
stage3_5_5 (Conv2D)             (None, 8, 8, 96)     221280      stage2_maxpool[0][0]
__________________________________________________________________________________________________
stage3_pool_1_1 (Conv2D)        (None, 8, 8, 64)     147520      stage2_maxpool[0][0]
__________________________________________________________________________________________________
concatenate_2 (Concatenate)     (None, 8, 8, 480)    0           stage3_1_1[0][0]
                                                                 stage3_3_3[0][0]
                                                                 stage3_5_5[0][0]
                                                                 stage3_pool_1_1[0][0]
__________________________________________________________________________________________________
stage3_maxpool (MaxPooling2D)   (None, 4, 4, 480)    0           concatenate_2[0][0]
__________________________________________________________________________________________________
average_pooling2d_1 (AveragePoo (None, 1, 1, 480)    0           stage3_maxpool[0][0]
__________________________________________________________________________________________________
flatten_1 (Flatten)             (None, 480)          0           average_pooling2d_1[0][0]
__________________________________________________________________________________________________
dropout_1 (Dropout)             (None, 480)          0           flatten_1[0][0]
__________________________________________________________________________________________________
stage4_dense1 (Dense)           (None, 10)           4810        dropout_1[0][0]
==================================================================================================
Total params: 1,195,338
Trainable params: 1,195,338
Non-trainable params: 0
__________________________________________________________________________________________________
Epoch 1/200
391/391 [==============================] - 17s 42ms/step - loss: 1.7614 - acc: 0.3431 - val_loss: 1.7090 - val_acc: 0.4082
…
