…
DATA_AUGMENTATION = True 
REGULARIZATION = 0.0
BATCH_SIZE = 128
EPOCHS = 200
es = keras.callbacks.EarlyStopping(monitor='val_acc', patience=15)
reduce_lr = keras.callbacks.ReduceLROnPlateau(monitor='val_acc', factor=0.1, patience=10, verbose=1)


Using TensorFlow backend.
Using data augmentation.
__________________________________________________________________________________________________
Layer (type)                    Output Shape         Param #     Connected to
==================================================================================================
input_1 (InputLayer)            (None, 32, 32, 3)    0
__________________________________________________________________________________________________
conv1 (Conv2D)                  (None, 32, 32, 16)   448         input_1[0][0]
__________________________________________________________________________________________________
conv1_bn (BatchNormalization)   (None, 32, 32, 16)   64          conv1[0][0]
__________________________________________________________________________________________________
activation_1 (Activation)       (None, 32, 32, 16)   0           conv1_bn[0][0]
__________________________________________________________________________________________________
res2a_branch2a (Conv2D)         (None, 32, 32, 16)   2320        activation_1[0][0]
__________________________________________________________________________________________________
bn2a_branch2a (BatchNormalizati (None, 32, 32, 16)   64          res2a_branch2a[0][0]
__________________________________________________________________________________________________
activation_2 (Activation)       (None, 32, 32, 16)   0           bn2a_branch2a[0][0]
__________________________________________________________________________________________________
res2a_branch2b (Conv2D)         (None, 32, 32, 16)   2320        activation_2[0][0]
__________________________________________________________________________________________________
bn2a_branch2b (BatchNormalizati (None, 32, 32, 16)   64          res2a_branch2b[0][0]
__________________________________________________________________________________________________
add_1 (Add)                     (None, 32, 32, 16)   0           bn2a_branch2b[0][0]
                                                                 activation_1[0][0]
__________________________________________________________________________________________________
activation_3 (Activation)       (None, 32, 32, 16)   0           add_1[0][0]
__________________________________________________________________________________________________
res2b_branch2a (Conv2D)         (None, 32, 32, 16)   2320        activation_3[0][0]
__________________________________________________________________________________________________
bn2b_branch2a (BatchNormalizati (None, 32, 32, 16)   64          res2b_branch2a[0][0]
__________________________________________________________________________________________________
activation_4 (Activation)       (None, 32, 32, 16)   0           bn2b_branch2a[0][0]
__________________________________________________________________________________________________
res2b_branch2b (Conv2D)         (None, 32, 32, 16)   2320        activation_4[0][0]
__________________________________________________________________________________________________
bn2b_branch2b (BatchNormalizati (None, 32, 32, 16)   64          res2b_branch2b[0][0]
__________________________________________________________________________________________________
add_2 (Add)                     (None, 32, 32, 16)   0           bn2b_branch2b[0][0]
                                                                 activation_3[0][0]
__________________________________________________________________________________________________
activation_5 (Activation)       (None, 32, 32, 16)   0           add_2[0][0]
__________________________________________________________________________________________________
res2c_branch2a (Conv2D)         (None, 32, 32, 16)   2320        activation_5[0][0]
__________________________________________________________________________________________________
bn2c_branch2a (BatchNormalizati (None, 32, 32, 16)   64          res2c_branch2a[0][0]
__________________________________________________________________________________________________
activation_6 (Activation)       (None, 32, 32, 16)   0           bn2c_branch2a[0][0]
__________________________________________________________________________________________________
res2c_branch2b (Conv2D)         (None, 32, 32, 16)   2320        activation_6[0][0]
__________________________________________________________________________________________________
bn2c_branch2b (BatchNormalizati (None, 32, 32, 16)   64          res2c_branch2b[0][0]
__________________________________________________________________________________________________
add_3 (Add)                     (None, 32, 32, 16)   0           bn2c_branch2b[0][0]
                                                                 activation_5[0][0]
__________________________________________________________________________________________________
activation_7 (Activation)       (None, 32, 32, 16)   0           add_3[0][0]
__________________________________________________________________________________________________
res3a_branch2a (Conv2D)         (None, 16, 16, 32)   4640        activation_7[0][0]
__________________________________________________________________________________________________
bn3a_branch2a (BatchNormalizati (None, 16, 16, 32)   128         res3a_branch2a[0][0]
__________________________________________________________________________________________________
activation_8 (Activation)       (None, 16, 16, 32)   0           bn3a_branch2a[0][0]
__________________________________________________________________________________________________
res3a_branch2b (Conv2D)         (None, 16, 16, 32)   9248        activation_8[0][0]
__________________________________________________________________________________________________
res3a_branch1 (Conv2D)          (None, 16, 16, 32)   544         activation_7[0][0]
__________________________________________________________________________________________________
bn3a_branch2b (BatchNormalizati (None, 16, 16, 32)   128         res3a_branch2b[0][0]
__________________________________________________________________________________________________
bn3a_branch1 (BatchNormalizatio (None, 16, 16, 32)   128         res3a_branch1[0][0]
__________________________________________________________________________________________________
add_4 (Add)                     (None, 16, 16, 32)   0           bn3a_branch2b[0][0]
                                                                 bn3a_branch1[0][0]
__________________________________________________________________________________________________
activation_9 (Activation)       (None, 16, 16, 32)   0           add_4[0][0]
__________________________________________________________________________________________________
res3b_branch2a (Conv2D)         (None, 16, 16, 32)   9248        activation_9[0][0]
__________________________________________________________________________________________________
bn3b_branch2a (BatchNormalizati (None, 16, 16, 32)   128         res3b_branch2a[0][0]
__________________________________________________________________________________________________
activation_10 (Activation)      (None, 16, 16, 32)   0           bn3b_branch2a[0][0]
__________________________________________________________________________________________________
res3b_branch2b (Conv2D)         (None, 16, 16, 32)   9248        activation_10[0][0]
__________________________________________________________________________________________________
bn3b_branch2b (BatchNormalizati (None, 16, 16, 32)   128         res3b_branch2b[0][0]
__________________________________________________________________________________________________
add_5 (Add)                     (None, 16, 16, 32)   0           bn3b_branch2b[0][0]
                                                                 activation_9[0][0]
__________________________________________________________________________________________________
activation_11 (Activation)      (None, 16, 16, 32)   0           add_5[0][0]
__________________________________________________________________________________________________
res3c_branch2a (Conv2D)         (None, 16, 16, 32)   9248        activation_11[0][0]
__________________________________________________________________________________________________
bn3c_branch2a (BatchNormalizati (None, 16, 16, 32)   128         res3c_branch2a[0][0]
__________________________________________________________________________________________________
activation_12 (Activation)      (None, 16, 16, 32)   0           bn3c_branch2a[0][0]
__________________________________________________________________________________________________
res3c_branch2b (Conv2D)         (None, 16, 16, 32)   9248        activation_12[0][0]
__________________________________________________________________________________________________
bn3c_branch2b (BatchNormalizati (None, 16, 16, 32)   128         res3c_branch2b[0][0]
__________________________________________________________________________________________________
add_6 (Add)                     (None, 16, 16, 32)   0           bn3c_branch2b[0][0]
                                                                 activation_11[0][0]
__________________________________________________________________________________________________
activation_13 (Activation)      (None, 16, 16, 32)   0           add_6[0][0]
__________________________________________________________________________________________________
res4a_branch2a (Conv2D)         (None, 8, 8, 64)     18496       activation_13[0][0]
__________________________________________________________________________________________________
bn4a_branch2a (BatchNormalizati (None, 8, 8, 64)     256         res4a_branch2a[0][0]
__________________________________________________________________________________________________
activation_14 (Activation)      (None, 8, 8, 64)     0           bn4a_branch2a[0][0]
__________________________________________________________________________________________________
res4a_branch2b (Conv2D)         (None, 8, 8, 64)     36928       activation_14[0][0]
__________________________________________________________________________________________________
res4a_branch1 (Conv2D)          (None, 8, 8, 64)     2112        activation_13[0][0]
__________________________________________________________________________________________________
bn4a_branch2b (BatchNormalizati (None, 8, 8, 64)     256         res4a_branch2b[0][0]
__________________________________________________________________________________________________
bn4a_branch1 (BatchNormalizatio (None, 8, 8, 64)     256         res4a_branch1[0][0]
__________________________________________________________________________________________________
add_7 (Add)                     (None, 8, 8, 64)     0           bn4a_branch2b[0][0]
                                                                 bn4a_branch1[0][0]
__________________________________________________________________________________________________
activation_15 (Activation)      (None, 8, 8, 64)     0           add_7[0][0]
__________________________________________________________________________________________________
res4b_branch2a (Conv2D)         (None, 8, 8, 64)     36928       activation_15[0][0]
__________________________________________________________________________________________________
bn4b_branch2a (BatchNormalizati (None, 8, 8, 64)     256         res4b_branch2a[0][0]
__________________________________________________________________________________________________
activation_16 (Activation)      (None, 8, 8, 64)     0           bn4b_branch2a[0][0]
__________________________________________________________________________________________________
res4b_branch2b (Conv2D)         (None, 8, 8, 64)     36928       activation_16[0][0]
__________________________________________________________________________________________________
bn4b_branch2b (BatchNormalizati (None, 8, 8, 64)     256         res4b_branch2b[0][0]
__________________________________________________________________________________________________
add_8 (Add)                     (None, 8, 8, 64)     0           bn4b_branch2b[0][0]
                                                                 activation_15[0][0]
__________________________________________________________________________________________________
activation_17 (Activation)      (None, 8, 8, 64)     0           add_8[0][0]
__________________________________________________________________________________________________
res4c_branch2a (Conv2D)         (None, 8, 8, 64)     36928       activation_17[0][0]
__________________________________________________________________________________________________
bn4c_branch2a (BatchNormalizati (None, 8, 8, 64)     256         res4c_branch2a[0][0]
__________________________________________________________________________________________________
activation_18 (Activation)      (None, 8, 8, 64)     0           bn4c_branch2a[0][0]
__________________________________________________________________________________________________
res4c_branch2b (Conv2D)         (None, 8, 8, 64)     36928       activation_18[0][0]
__________________________________________________________________________________________________
bn4c_branch2b (BatchNormalizati (None, 8, 8, 64)     256         res4c_branch2b[0][0]
__________________________________________________________________________________________________
add_9 (Add)                     (None, 8, 8, 64)     0           bn4c_branch2b[0][0]
                                                                 activation_17[0][0]
__________________________________________________________________________________________________
activation_19 (Activation)      (None, 8, 8, 64)     0           add_9[0][0]
__________________________________________________________________________________________________
avg_pool (AveragePooling2D)     (None, 4, 4, 64)     0           activation_19[0][0]
__________________________________________________________________________________________________
flatten_1 (Flatten)             (None, 1024)         0           avg_pool[0][0]
__________________________________________________________________________________________________
fc (Dense)                      (None, 10)           10250       flatten_1[0][0]
==================================================================================================
Total params: 284,426
Trainable params: 282,858
Non-trainable params: 1,568
__________________________________________________________________________________________________
Epoch 1/200
391/391 [==============================] - 26s 66ms/step - loss: 1.7592 - acc: 0.3650 - val_loss: 1.5308 - val_acc: 0.4517
…
