# Training parameters
LEARNING_RATE = 1e-3
DATA_AUGMENTATION = True 
BATCH_SIZE = 128
EPOCHS = 200
BATCH_NORMALIZATION = True
REGULARIZATION = 0.0
KERNEL_INITIALIZER = 'he_normal'


Using TensorFlow backend.
Using data augmentation.
_________________________________________________________________
Layer (type)                 Output Shape              Param #
=================================================================
input (InputLayer)           (None, 32, 32, 3)         0
_________________________________________________________________
block1_conv1 (Conv2D)        (None, 32, 32, 32)        896
_________________________________________________________________
block1_bn1 (BatchNormalizati (None, 32, 32, 32)        128
_________________________________________________________________
block1_relu1 (Activation)    (None, 32, 32, 32)        0
_________________________________________________________________
block1_conv2 (Conv2D)        (None, 32, 32, 32)        9248
_________________________________________________________________
block1_bn2 (BatchNormalizati (None, 32, 32, 32)        128
_________________________________________________________________
block1_relu2 (Activation)    (None, 32, 32, 32)        0
_________________________________________________________________
block1_maxpool (MaxPooling2D (None, 16, 16, 32)        0
_________________________________________________________________
block2_conv1 (Conv2D)        (None, 16, 16, 64)        18496
_________________________________________________________________
block2_bn1 (BatchNormalizati (None, 16, 16, 64)        256
_________________________________________________________________
block2_relu1 (Activation)    (None, 16, 16, 64)        0
_________________________________________________________________
block2_conv2 (Conv2D)        (None, 16, 16, 64)        36928
_________________________________________________________________
block2_bn2 (BatchNormalizati (None, 16, 16, 64)        256
_________________________________________________________________
block2_relu2 (Activation)    (None, 16, 16, 64)        0
_________________________________________________________________
block2_maxpool (MaxPooling2D (None, 8, 8, 64)          0
_________________________________________________________________
flatten_1 (Flatten)          (None, 4096)              0
_________________________________________________________________
dense_1 (Dense)              (None, 512)               2097664
_________________________________________________________________
dense_bn1 (BatchNormalizatio (None, 512)               2048
_________________________________________________________________
dense_relu1 (Activation)     (None, 512)               0
_________________________________________________________________
dropout_1 (Dropout)          (None, 512)               0
_________________________________________________________________
dense_2 (Dense)              (None, 10)                5130
=================================================================
Total params: 2,171,178
Trainable params: 2,169,770
Non-trainable params: 1,408
_________________________________________________________________
Epoch 1/200
391/391 [==============================] - 17s 44ms/step - loss: 1.6304 - acc: 0.4332 - val_loss: 1.4027 - val_acc: 0.5351
Epoch 2/200
391/391 [==============================] - 14s 36ms/step - loss: 1.2304 - acc: 0.5567 - val_loss: 1.0657 - val_acc: 0.6119
…
